…
 'w', 59: 'x', 60: 'y', 61: 'z', 62: ' ', 63: '!', 64: '"', 65: '#', 66: '&', 67: "'", 68: '(', 69: ')', 70: '*', 71: '+', 72: ',', 73: '-', 74: '.', 75: '/', 76: ':', 77: ';', 78: '?', 79: '_'}
Train: (7101, 28, 952) (7101, 97, 80)
Test: (1861, 28, 952) (1861, 97, 80)

__________________________________________________________________________________________________
Layer (type)                    Output Shape         Param #     Connected to                     
==================================================================================================
image (InputLayer)              (None, 28, 952)      0                                            
__________________________________________________________________________________________________
reshape (Reshape)               (None, 28, 952, 1)   0           image[0][0]                      
__________________________________________________________________________________________________
lambda (Lambda)                 (None, 474, 28, 6, 1 0           reshape[0][0]                    
__________________________________________________________________________________________________
time_distributed (TimeDistribut (None, 474, 128)     117248      lambda[0][0]                     
__________________________________________________________________________________________________
bidirectional (Bidirectional)   (None, 474, 256)     264192      time_distributed[0][0]           
__________________________________________________________________________________________________
dropout_2 (Dropout)             (None, 474, 256)     0           bidirectional[0][0]              
__________________________________________________________________________________________________
bidirectional_1 (Bidirectional) (None, 474, 256)     395264      dropout_2[0][0]                  
__________________________________________________________________________________________________
dropout_3 (Dropout)             (None, 474, 256)     0           bidirectional_1[0][0]            
__________________________________________________________________________________________________
input_length (InputLayer)       (None, 1)            0                                            
__________________________________________________________________________________________________
y_true (InputLayer)             (None, 97)           0                                            
__________________________________________________________________________________________________
softmax_output (Dense)          (None, 474, 80)      20560       dropout_3[0][0]                  
__________________________________________________________________________________________________
lambda_1 (Lambda)               (None, 1)            0           input_length[0][0]               
__________________________________________________________________________________________________
label_length (InputLayer)       (None, 1)            0                                            
__________________________________________________________________________________________________
ctc_loss (Lambda)               (None, 1)            0           y_true[0][0]                     
                                                                 softmax_output[0][0]             
                                                                 lambda_1[0][0]                   
                                                                 label_length[0][0]               
__________________________________________________________________________________________________
…
